model.pth (torch, 4090 bytes, 5 tensors)

edge_weight1 f4 [240]
000000 a8 2d f2 3f 0d 58 68 3f 27 fb 36 3e bf ff 2e 3e
       1.8920183 0.90759355 0.17869245 0.17089747
000010 2e 28 75 3e 61 0a a4 3e 18 0a 32 3f b4 49 3c 3f
       0.23941109 0.32039168 0.6954665 0.7354996
000020 35 5e 78 3f 8a 1c a1 3f c2 16 ba 3f 08 85 18 40
       0.9701875 1.2586834 1.4538195 2.3831196
000030 dd 42 08 3f a7 80 2e 40 33 ec bc 3f 8f e9 d9 3f
       0.53227025 2.7266023 1.4759582 1.7024401
000040 0f 04 0d 3f 6b 0b ef 3e a7 67 f0 3e 8d fb 01 3f
       0.5508432 0.466884 0.4695408 0.5077446
000050 d6 22 1a 3f 61 06 5f 3f 36 bc 64 3f 69 cc a4 3f
       0.60209405 0.8711911 0.8934969 1.2874881
000060 48 55 d8 3f 97 a4 b2 3f d3 88 14 40 2d 9a 65 3f
       1.6901026 1.3956479 2.320851 0.8968838
000070 8c 64 2f 40 b7 0a c2 3f 63 82 a5 3f 0a 6d b9 3f
       2.740512 1.515952 1.2930416 1.4486401
000080 a4 52 d8 bc 42 7e c2 bd 5a 66 42 be 7a f4 19 3d
       -0.026406594 -0.09496738 -0.18984357 0.037586667
000090 14 80 4f 3f 5c 1e 62 3f 05 ed 92 3f 26 e2 e5 3f
       0.81054807 0.88327575 1.1478583 1.795964
0000a0 4a 93 73 3f a3 db cb 3f cf 9b 58 3f d8 1b ff 3f
       0.9514662 1.5926403 0.84612745 1.9930372
0000b0 63 dc 8a 3f a2 c2 74 be c6 84 82 be df 15 d7 3d
       1.0848507 -0.23902372 -0.25491923 0.105022185
0000c0 55 ea 1b 40 39 b5 09 40 69 24 e7 3f b3 17 13 3f
       2.4361775 2.151686 1.8057986 0.5745804
0000d0 1e 6e 0b 3f 8b 21 99 3e fc 1e 18 3f 17 1d 0b bf
       0.544649 0.29908404 0.5942228 -0.5434126
0000e0 f8 4c c2 bd 6f 2e 69 3e 34 ad 2b be ec 47 a1 bd
       -0.09487337 0.2277162 -0.1676529 -0.07875046
0000f0 b8 de 78 be a9 dc 4c be 38 fa 13 3f 48 e9 17 40
       -0.2430371 -0.2000605 0.5780368 2.3736134
000100 6d 15 0c 40 52 84 ea 3f 95 43 33 3f b2 21 39 3f
       2.1888077 1.8321631 0.70024997 0.7231704
000110 63 30 cf 3e 67 c2 cf 3e 1a b6 f9 be 9c ec 99 bd
       0.40466604 0.40578005 -0.48771745 -0.07515833
000120 62 6b 82 3e 5b 13 06 be 82 66 08 3a 8f 16 14 be
       0.25472552 -0.13093321 0.0005203263 -0.1446173
000130 f2 28 20 be dd 7b 53 3f c3 92 0e 40 3a 96 12 40
       -0.1564062 0.82610875 2.2277076 2.290419
000140 aa 35 d3 3f 4d 8e 2a 3f 53 cb 30 3f f2 44 bf 3e
       1.6500752 0.66623384 0.6906025 0.3735729
000150 21 1d 32 3e dd 9c e8 be 89 f3 1c bd fb 29 30 3e
       0.17393924 -0.45432177 -0.03831819 0.17203514
000160 2e 30 30 be b6 4b 7e 3c 82 0b 20 be 80 af 2f be
       -0.17205879 0.015520981 -0.1562939 -0.17156792
000170 58 7e 87 3f b2 80 10 40 ed c5 18 40 c4 e6 06 40
       1.0585432 2.257855 2.3870804 2.1078348
000180 0c eb 7f 3f c6 3e 80 3f 94 a1 31 3f c8 b6 f6 39
       0.9996803 1.0019157 0.69387174 0.0004705696
000190 c9 b1 d3 be a1 ff 33 bc 71 20 80 3e e9 2e 2c bc
       -0.41346577 -0.01098624 0.2502475 -0.010509231
0001a0 44 d2 d9 3e 05 20 d0 bd 41 22 3c 3e 96 a0 27 40
       0.42543232 -0.10162357 0.18372442 2.6191764
0001b0 42 7f b4 3f e5 b1 b6 3f d3 3e a1 3f 6f 02 63 3f
       1.4101336 1.4273039 1.2597297 0.8867559
0001c0 5f a1 62 3f 13 9b 47 3f f0 dc 44 bf 86 e2 0e 3e
       0.8852748 0.77971 -0.76899624 0.139536
0001d0 97 bf 6a be 87 88 82 be 5e ec 08 3e ff da a6 be
       -0.22924648 -0.25494787 0.13371417 -0.32588956
0001e0 cb e6 b2 3d 00 cd 58 3d 97 90 34 40 f8 00 b8 3f
       0.087354265 0.05292988 2.821325 1.4375296
0001f0 a9 6a bd 3f 50 00 a8 3f d6 66 8d 3f 2e 6b 34 3f
       1.4798175 1.3125095 1.1047008 0.70476043
000200 53 25 64 3f 20 84 44 bf 51 42 83 3e 0e c7 4d be
       0.8911945 -0.76764107 0.25636533 -0.20095465
000210 cb e3 3c bc f2 78 2f 3d 5b 29 63 3d e1 30 63 3f
       -0.011528919 0.04283995 0.05545936 0.8874646
000220 74 e5 86 3f 73 cd 8a 3f be ec da 3d fb 83 f6 3d
       1.0538774 1.0843948 0.10689686 0.12036892
000230 b0 b9 ef 3d ad 18 4c 3e 44 f6 9e bc c5 84 ce 39
       0.11705339 0.19931288 -0.019404538 0.00039390303
000240 25 31 55 3e c4 de 2b 3f b5 f2 98 3f ef 74 c2 be
       0.20819528 0.6713679 1.1949068 -0.37979838
000250 b0 ec e1 3f 6f 0f 89 be 8a f7 3d 3f c0 a8 2b 3f
       1.7650356 -0.26769587 0.7420584 0.6705437
000260 0f 64 67 40 88 dd b3 3e d1 40 a5 3e 31 e3 85 3e
       3.615482 0.35129952 0.32276013 0.26149896
000270 be cc 87 3e 65 99 a2 bd 50 4f 15 be 23 0d 03 3f
       0.26523393 -0.07939414 -0.14581037 0.5119192
000280 7f 68 7e 3c b8 c9 31 3f ce 8c 24 bf d8 7d 5c 3f
       0.0155278435 0.69448423 -0.6427735 0.8612952
000290 b7 a9 02 3f 2a 07 a6 3f 79 46 c4 3f c6 e0 08 40
       0.51040214 1.2970936 1.5334007 2.138719
0002a0 ce f4 84 bd 07 b9 2a bd 62 d2 c5 bb e7 98 a4 3d
       -0.06492005 -0.041680362 -0.0060370425 0.08036976
0002b0 ec 6b 8b 3e 76 00 8a 3e 9c e4 53 3f 25 00 9f be
       0.27230775 0.26953477 0.82770705 -0.31054798
0002c0 44 29 0c 40 bc 51 a3 bc 99 07 1d 40 cd 6d 80 3f
       2.1900187 -0.019936435 2.4535887 1.0033509
0002d0 a1 af e7 3f 92 18 fe 3f 8f 7a 39 3f aa 80 24 3e
       1.8100473 1.9851248 0.72452635 0.16064706
0002e0 46 eb 0c 3e 59 a8 22 3e 94 05 7a 3e 68 44 63 3f
       0.13761625 0.15884532 0.2441619 0.88776255
0002f0 3c 38 6e 3f 4a 1f 99 3f 2c 60 b0 3f 94 f4 ec 3f
       0.93054557 1.1962674 1.3779349 1.8512139
000300 64 e7 4a 3f 9e 57 3c 40 bb 4d d7 3f c4 41 13 3d
       0.79259324 2.9428477 1.6820596 0.03595139
000310 24 83 23 3e 4d 02 4b 40 4b 1d 0c 3f f1 79 06 3f
       0.15967995 3.1720154 0.547322 0.5252982
000320 45 dc e9 3e b0 e7 93 3e 8e 38 86 be 5a 1a 75 be
       0.45675865 0.288877 -0.26215023 -0.23935834
000330 58 17 61 bd 16 37 c7 bf ac 7b 1d be c6 eb 89 3e
       -0.054953903 -1.5563686 -0.15379208 0.26937693
000340 ad 5d 01 3f 8d 1f e5 bd fb f6 d3 3f 80 d0 fb 3f
       0.5053356 -0.111876585 1.6559747 1.9673004
000350 26 b7 e6 bc dc 70 94 3e 6f 0b 9d 3e f5 94 9e 3e
       -0.028163504 0.28992355 0.30672786 0.3097302
000360 f4 b4 ca 3e 86 e8 8f 3f 61 19 9a 3f 85 a2 b8 3f
       0.3959118 1.1242836 1.2038995 1.4424597
000370 94 d7 ed 3f 98 81 db 3f 4f 6c 1a 40 60 b9 70 3f
       1.8581414 1.7148924 2.4128606 0.9403286
000380 c7 13 bd 3f dc 26 b8 3f 53 3a ad 3f de 31 1f 40
       1.477166 1.4386859 1.3533424 2.4874187
000390 16 b1 09 be 5d dc af bd 64 4a a7 bc fa a2 2a 3e
       -0.13446459 -0.08586953 -0.020421214 0.16663733
0003a0 51 a2 f1 3e 21 58 f9 3e 4f ff 7c 3f 12 bd 11 bf
       0.4719415 0.4870005 0.9882707 -0.56929123
0003b0 3a a5 6c 3f b6 cc fd 3f 7d 99 62 3e 9d 2e f4 3f
       0.92439616 1.9828098 0.22128864 1.9076725

conv1.bias f4 [32]
000000 84 08 39 b2 1e b7 a6 bd d7 9e bb bd 3f 45 44 3d
       -1.07703535e-08 -0.081403956 -0.09161156 0.0479176
000010 30 a1 23 bb dd 49 25 bd 1a 69 80 bd d0 97 bd 3d
       -0.0024967901 -0.040353645 -0.062700465 0.092574716
000020 c8 8b a7 be 39 b6 80 bd 04 78 c1 bd a4 b1 4d be
       -0.32723832 -0.06284756 -0.09446719 -0.20087296
000030 49 0c 9d be c1 e8 74 be 78 82 48 bc 94 89 81 be
       -0.30673435 -0.23916914 -0.012238137 -0.25300276
000040 d5 be dd 3c b6 eb aa be ea 53 03 bd 04 f9 a3 3d
       0.027068535 -0.33382958 -0.03206245 0.0800648
000050 4a a3 8b bd d4 2f 1e 3e c7 f8 2b bc 88 cd a6 bd
       -0.06818254 0.15447932 -0.010496325 -0.08144671
000060 97 9d 43 bb 66 7f 3a 3d 0d 61 5b be 3c 0d 58 be
       -0.002984857 0.045531653 -0.2142374 -0.21098799
000070 29 09 71 be b8 8e 0e bd eb df bc 3d 28 7d ba bb
       -0.2353865 -0.034804076 0.092223965 -0.0056911893

conv1.lin.weight f4 [32, 5]
000000 8d 74 0a 80 8d ed 29 80 36 4e 17 96 97 85 bd 2d
       -9.60166e-40 -3.850473e-39 -1.2222362e-25 2.1546138e-11
000010 1e d2 2f 31 50 bc e6 3e 7e 89 f3 bd 79 6e 6c 3e
       2.558529e-09 0.45065546 -0.11891459 0.23089017
000020 fe 84 62 3e 7e b8 b0 be 71 62 01 3f c8 51 54 bf
       0.22121045 -0.34515756 0.50540835 -0.8293729
000030 a8 b4 cf be 0c 8b ca be 78 52 9b 3e 0f dd 41 3f
       -0.40567517 -0.3955921 0.30336356 0.75727934
000040 b3 82 3a 3e a7 f7 f9 bd 1b 80 e3 be fa 83 4a be
       0.1821392 -0.12205439 -0.44433674 -0.19776908
000050 71 92 79 3b 60 df a9 bb 23 a9 11 3a 7d 85 9b bb
       0.003808167 -0.005184099 0.00055565144 -0.0047461377
000060 3b ac 4a b9 8e db 21 bf 15 7e b8 be 66 9f 16 bf
       -0.00019328382 -0.6322564 -0.36033693 -0.5883697
000070 c4 32 69 3e 81 b4 cb 3b e1 5b fc be 5a 1a 82 be
       0.22773272 0.006216586 -0.49288848 -0.2541073
000080 a3 ec 8b 3b 16 75 33 3e 55 7a 1a bd 02 86 e6 bd
       0.0042701527 0.17525133 -0.03771432 -0.11256029
000090 a0 97 4b 3c 6a c4 18 3e 22 35 fd be e5 c8 41 3d
       0.012426287 0.14918676 -0.494546 0.04731073
0000a0 b9 50 b7 bd 97 4b ab 3e 7e b1 7d 3d 6b 9a 10 3d
       -0.089509435 0.33456108 0.061936848 0.035303514
0000b0 c0 05 1c 3e 26 8c 8d 3e 50 f6 79 3e d5 2e e5 3d
       0.15236568 0.27645987 0.24410367 0.11190573
0000c0 17 43 17 3e bd 04 4e bb ae a6 a0 3e 19 1a 6b be
       0.14771686 -0.003143593 0.31377167 -0.22959174
0000d0 b4 3b 1b bf 1f e8 8f 3e 4b bf 67 3e 53 17 ef 3d
       -0.60637975 0.28106782 0.22631566 0.116743706
0000e0 9d 4b 85 be e8 72 61 3e 38 57 7f 3e 81 a1 90 3d
       -0.2603425 0.2201649 0.24935615 0.070620544
0000f0 a9 ee a2 bd 03 c9 98 be ca 8c e2 3e 3c dc 55 3e
       -0.07955677 -0.2984086 0.4424804 0.20884794
000100 13 1c 01 bd 4c f2 c4 3d 16 69 dc 3e fc 0c ab bd
       -0.031520914 0.09616527 0.43048924 -0.08352086
000110 c5 c1 9e 3e 73 0b 32 bc ef eb 65 3c 22 4c b1 bc
       0.3100721 -0.0108669875 0.014033302 -0.021642748
000120 1e a1 f8 bb 2c a6 df bb 87 e7 e4 b9 10 26 e0 3c
       -0.007587566 -0.006825229 -0.0004366005 0.0273619
000130 c4 c2 af be fe ee 6f 3e f3 08 5e 3e 87 02 27 bc
       -0.34328282 0.23431012 0.21683101 -0.010193474
000140 b6 89 4b be 70 05 a8 bf ad 86 6a be 88 56 2b 3e
       -0.19876751 -1.3126659 -0.22902937 0.16732228
000150 9c 41 26 3e 8a 80 6d bd 2a 1a 02 3e 7d 9f a1 3e
       0.16235965 -0.057983913 0.12705293 0.31566992
000160 77 91 1e 3d 10 a7 a2 3d 6f ec 1b 3e 57 18 96 bf
       0.038712945 0.07942021 0.15226911 -1.1726178
000170 df 8b 96 be 40 35 b8 3e db b7 85 3b 07 4c a2 3e
       -0.29403588 0.35978127 0.004080755 0.3169863
000180 e0 5c 98 be 34 96 05 bf 78 8c b8 3e 96 74 f6 ba
       -0.29758358 -0.52182317 0.3604467 -0.0018803056
000190 ca 28 bd b8 3b 2c f4 bb 8c 26 d3 bc 73 10 39 3d
       -9.01982e-05 -0.0074515617 -0.025775217 0.045181703
0001a0 87 f7 0b 80 8f b6 ff 3e 33 2d 45 bd ff 59 93 be
       -1.098987e-39 0.4994397 -0.04813881 -0.287796
0001b0 62 a4 cf 3e 02 e8 02 3c 36 cd fb 3b 4f be 27 bc
       0.40555102 0.007989885 0.007684375 -0.010238244
0001c0 b4 de 25 bc 5d 38 27 bc 2c 69 2c bc c4 d1 09 3e
       -0.010123897 -0.010206309 -0.010523122 0.13458925
0001d0 59 2e d6 3e 6b 29 db bd 16 0b 53 3d 93 f4 a8 3d
       0.41832235 -0.10701259 0.051524244 0.08249774
0001e0 1d 3e e4 31 af e1 22 b9 9b 4f a0 ba 72 bf c7 b3
       6.642735e-09 -0.00015533598 -0.0012230756 -9.301483e-08
0001f0 0d c6 4c bb b1 7d 9c bd e6 a7 4a 3e c4 94 39 3e
       -0.0031245977 -0.07641161 0.1979061 0.18123156
000200 95 69 ec be aa e3 e6 3b c3 fd 95 be 68 b2 ce be
       -0.46174303 0.0070461826 -0.29295167 -0.40370488
000210 a4 0f 89 3e af b3 93 3e 04 83 00 3d cc fd cb 3d
       0.26769745 0.28848025 0.031374946 0.09960517
000220 b2 60 c7 3e 0b 31 c5 be b2 ec 19 3e 2c 3b d1 bd
       0.3894096 -0.3851398 0.15031698 -0.10216364
000230 0e 63 73 3c 0a 18 90 be c5 6d c9 3e 24 f2 71 3e
       0.014855159 -0.2814334 0.3934156 0.23627526
000240 76 3a 4d be c8 27 42 3f 18 0d d2 be 65 83 a1 3e
       -0.20041832 0.7584195 -0.41025615 0.3154556
000250 cb 3a be bd 47 67 9c bd f3 59 ac 3e 32 24 76 3e
       -0.092885576 -0.07636886 0.33662376 0.24037245
000260 b8 a1 83 be ee 8e a0 bd 08 43 9e bc d7 8a a3 3c
       -0.2570932 -0.07839762 -0.019319072 0.019963665
000270 9c 03 23 bc 82 8e 91 bb 81 cb f9 bb 13 48 21 bc
       -0.009949591 -0.004442037 -0.0076231365 -0.009843844

fc1.weight f4 [2, 32]
000000 60 d5 96 33 33 25 a7 3c d2 b4 db be d3 57 26 be
       7.023732e-08 0.02040348 -0.42911392 -0.1624444
000010 45 64 31 bb 62 91 19 3e 50 d2 de bb 3c 27 00 bd
       -0.0027067822 0.14996865 -0.0067999735 -0.031287417
000020 5a 2b 64 3d b4 56 7d bd 0d 0d 77 be ae ef 5a 3e
       0.055705406 -0.061850265 -0.24126072 0.21380493
000030 e5 b9 22 bf c3 01 42 be e4 16 57 bc 00 89 09 bf
       -0.635649 -0.18945985 -0.013128016 -0.5372467
000040 f6 ef 1e 3f 90 40 27 3e a3 c3 e9 3e 21 7b 62 3e
       0.620849 0.16333222 0.4565707 0.22117282
000050 2b 64 a1 b9 1f 69 b4 3d 34 d8 9b 3b e0 04 da bd
       -0.00030782944 0.08809113 0.004755998 -0.10645461
000060 e5 19 55 80 5d a4 5b bd 85 0e f2 3d b5 e1 ca be
       -7.815306e-39 -0.053623546 0.11819176 -0.39625326
000070 f1 02 d1 3e 99 a7 17 bc bb 8a 1b 3e 1d 3f 92 bb
       0.40822557 -0.009256267 0.1518964 -0.00446309
000080 92 66 06 b6 90 06 09 be 0b 5e 26 3e c2 e0 ac 3d
       -2.002726e-06 -0.1338141 0.16246812 0.08441307
000090 dd 51 6a 3b 3e 9e f2 3d 9a ed 8b 3d c2 f5 7b 3d
       0.003575436 0.118465886 0.06832428 0.06151367
0000a0 42 4d 8f 3d 12 bb a5 bd 86 fe 34 be 12 3e b0 bd
       0.06997158 -0.080923215 -0.17675218 -0.08605589
0000b0 b7 43 21 3f 9a fa 7c 3d f5 c2 5e 3b eb 73 cf 3e
       0.6299395 0.06176243 0.0033990715 0.40518126
0000c0 65 72 f3 be a6 4c 71 bd a6 b4 ff bd 95 6c d7 bd
       -0.47548214 -0.05891099 -0.12485628 -0.10518757
0000d0 88 6d 95 3b 66 75 54 be 6e 55 e2 3b e6 cd 85 bd
       0.0045601763 -0.20747909 0.0069071567 -0.06533413
0000e0 c9 ad 36 b8 31 0a 89 3d 8f f1 11 3e 02 92 76 be
       -4.355403e-05 0.06691397 0.14252304 -0.24079135
0000f0 4d 93 de be cd d7 1c 3e 84 63 0a 3e 6e 67 ed b9
       -0.43471757 0.15316696 0.13514525 -0.00045281224

fc1.bias f4 [2]
000000 77 39 b7 3c d7 1d 19 bd
       0.022366269 -0.037381973
